…
20.8s 8 ['Tomato', 'Grape', 'Orange', 'Soybean', 'Squash', 'Potato', 'Corn_(maize)', 'Strawberry', 'Peach', 'Apple', 'Blueberry', 'Cherry_(including_sour)', 'Pepper,_bell', 'Raspberry']
20.9s 9 Number of plants: 14
21.0s 10 Number of diseases: 26
28.9s 11 There are 70295 images for training
107.5s 12 torch.Size([3, 256, 256]) 0
108.3s 13 Label :Apple___Apple_scab(0)
108.6s 14 Label :Tomato___healthy(37)
109.0s 15 Label :Peach___Bacterial_spot(16)
125.8s 16 ----------------------------------------------------------------
125.8s 17 Layer (type)               Output Shape         Param #
125.8s 18 ================================================================
125.8s 19 Conv2d-1         [-1, 64, 256, 256]           1,792
125.8s 20 BatchNorm2d-2         [-1, 64, 256, 256]             128
125.8s 21 ReLU-3         [-1, 64, 256, 256]               0
125.8s 22 Conv2d-4        [-1, 128, 256, 256]          73,856
125.8s 23 BatchNorm2d-5        [-1, 128, 256, 256]             256
125.8s 24 ReLU-6        [-1, 128, 256, 256]               0
125.8s 25 MaxPool2d-7          [-1, 128, 64, 64]               0
125.8s 26 Conv2d-8          [-1, 128, 64, 64]         147,584
125.8s 27 BatchNorm2d-9          [-1, 128, 64, 64]             256
125.8s 28 ReLU-10          [-1, 128, 64, 64]               0
125.8s 29 Conv2d-11          [-1, 128, 64, 64]         147,584
125.8s 30 BatchNorm2d-12          [-1, 128, 64, 64]             256
125.8s 31 ReLU-13          [-1, 128, 64, 64]               0
125.8s 32 Conv2d-14          [-1, 256, 64, 64]         295,168
125.8s 33 BatchNorm2d-15          [-1, 256, 64, 64]             512
125.8s 34 ReLU-16          [-1, 256, 64, 64]               0
125.8s 35 MaxPool2d-17          [-1, 256, 16, 16]               0
125.8s 36 Conv2d-18          [-1, 512, 16, 16]       1,180,160
125.8s 37 BatchNorm2d-19          [-1, 512, 16, 16]           1,024
125.8s 38 ReLU-20          [-1, 512, 16, 16]               0
125.8s 39 MaxPool2d-21            [-1, 512, 4, 4]               0
125.8s 40 Conv2d-22            [-1, 512, 4, 4]       2,359,808
125.8s 41 BatchNorm2d-23            [-1, 512, 4, 4]           1,024
125.8s 42 ReLU-24            [-1, 512, 4, 4]               0
125.8s 43 Conv2d-25            [-1, 512, 4, 4]       2,359,808
125.8s 44 BatchNorm2d-26            [-1, 512, 4, 4]           1,024
125.8s 45 ReLU-27            [-1, 512, 4, 4]               0
125.8s 46 MaxPool2d-28            [-1, 512, 1, 1]               0
125.8s 47 Flatten-29                  [-1, 512]               0
125.8s 48 Linear-30                   [-1, 38]          19,494
125.8s 49 ================================================================
125.8s 50 Total params: 6,589,734
125.8s 51 Trainable params: 6,589,734
125.8s 52 Non-trainable params: 0
125.8s 53 ----------------------------------------------------------------
125.8s 54 Input size (MB): 0.75
125.8s 55 Forward/backward pass size (MB): 343.95
125.8s 56 Params size (MB): 25.14
125.8s 57 Estimated Total Size (MB): 369.83
…
